result/model/20230610172647_Experiment_FedAvg_latest.pt (torch, 54607 bytes, 8 tensors)

module.layers.0.weight f4 [128, 20]
0	0x3e099af6	0.13438019
1	0xbdef867b	-0.11695572
2	0xbd5d7250	-0.054064095
3	0x3dc72eed	0.09725747
4	0xbe4f8455	-0.20265324
5	0x3e150164	0.14551312
6	0xbd390384	-0.04516937
7	0x3de8e436	0.11371653
8	0x3d44305a	0.047897674
9	0xbd0a36c2	-0.033743627
10	0x3d8db2a6	0.0691884
11	0x3c3c1faf	0.011482163
12	0x3da96369	0.08270914
13	0xbdbb65dc	-0.091502875
14	0xbc9b6147	-0.018967284
15	0xbcbc18da	-0.022961069
16	0x3d0d720e	0.0345326
17	0x3bd0654b	0.0063597313
18	0x3e29fd81	0.1660061
19	0x3d9195c2	0.07108642
20	0xbdc85762	-0.09782292
21	0xbdff680a	-0.12471016
22	0xbd0104fc	-0.031498894
23	0xbdbe7075	-0.09298793
24	0xbd9d7eba	-0.07690187
25	0x3c329d94	0.010901827
26	0x3e055fc0	0.13024807
27	0x3dfc1750	0.12309134
28	0xbe5c7e8d	-0.2153265
29	0x3e157cb5	0.14598353
30	0x3d6281d4	0.055299595
31	0x3e58708d	0.21136685
32	0x3e1b5181	0.1516781
33	0xbe4a3d59	-0.19749965
34	0xbe570756	-0.20998892
35	0xbddaa1a4	-0.10675362
36	0x3e41a837	0.18911825
37	0xbd1e2ea6	-0.038618706
38	0x3dde81d0	0.108646035
39	0xbdd91d84	-0.10601333
40	0x3e5cc1a6	0.21558246
41	0xbdbe5bca	-0.09294851
42	0x3e2e765b	0.17037337
43	0x3b8e1c72	0.004336887
44	0xbdf1e392	-0.11810984
45	0x3dec40b5	0.115357794
46	0xbdf1a6a1	-0.1179936
47	0x3d82a96d	0.06379972
48	0xbd7da554	-0.061925247
49	0xbcc0b51a	-0.023523856
50	0xbe53956e	-0.20662472
51	0xbddd1ffb	-0.107971154
52	0x3dfb0139	0.122560926
53	0xbd5b33d6	-0.05351623
54	0x3e60a8d8	0.21939409
55	0x3e38cb1b	0.18046229
56	0xbc2972da	-0.010342324
57	0xbe14e176	-0.14539132
58	0x3e0c61eb	0.13709228
59	0x3d925b8f	0.0714637
60	0xbe0e8fe6	-0.1392208
61	0x3e115114	0.14191085
62	0x3e05b958	0.13058984
63	0x3e4862e6	0.19568977
64	0xbdf661c0	-0.12030363
65	0xbd0c5c64	-0.034267798
66	0xbb1e6bc5	-0.0024173122
67	0x3d08514d	0.03328066
68	0xbe2ca04a	-0.1685802
69	0xbe251f0a	-0.16125122
70	0x3dfd7572	0.123759165
71	0xbd5cf4ba	-0.053944327
72	0x3dd85838	0.105637014
73	0x3c0b25d6	0.0084929075
74	0x3d9670a0	0.073457
75	0x3d4c2f94	0.04985006
76	0x3da6e0ec	0.08148369
77	0x3de54799	0.11195297
78	0xbe4f6cf9	-0.20256414
79	0x3dddc56c	0.10828671
80	0xbe2947a8	-0.16531241
81	0xbe24e3a4	-0.16102463
82	0x3c7f717e	0.0155910235
83	0xbd1792e2	-0.037005313
84	0x3dff54e8	0.124673665
85	0xbe068b2c	-0.13139027
86	0xbe4b428f	-0.19849609
87	0x3e2557e1	0.16146804
88	0xbd0b8d30	-0.034070194
89	0x3e0b396b	0.13596122
90	0x3d8e2ca5	0.06942109
91	0xbe27425e	-0.16333911
92	0x3d242e6f	0.040083345
93	0x3d76d5b0	0.060262382
94	0xbe187d23	-0.14891486
95	0xbdd79ce6	-0.10527973
96	0x3d952b67	0.07283669
97	0x3d0c98cc	0.034325406
98	0xbdb7cc63	-0.089745305
99	0xbd8299e3	-0.06377008
100	0x3e548531	0.20753933
101	0xbd28c497	-0.041203108
102	0x3df89a69	0.121388264
103	0x3dc787f4	0.09742728
104	0xbe11a443	-0.14222817
105	0xbe42578e	-0.18978712
106	0x3e5234a4	0.20527893
107	0x3c4976e3	0.012296411
108	0x3e1a2a32	0.15055159
109	0x3d4036ac	0.04692714
110	0x3d9bbafd	0.076040246
111	0x3e27b75a	0.16378537
112	0x3e51c19d	0.20484014
113	0xbe16430a	-0.14674011
114	0x3ce89749	0.02839245
115	0x3e2840b2	0.1643093
116	0x3e28bc9e	0.16478202
117	0x3e18900f	0.14898704
118	0xbe2074b8	-0.15669525
119	0xbe22a516	-0.15883288
120	0xbe044c2f	-0.12919687
121	0x3cd70dee	0.02625176
122	0x3e54d7c9	0.2078544
123	0xbe0e8364	-0.13917309
124	0x3dfdeb45	0.1239839
125	0xbdf32a5e	-0.11873315
126	0xbe52594c	-0.20541877
127	0xbd1948b7	-0.037422862
128	0x3e0600d2	0.1308625
129	0x3e41013e	0.1884813
130	0xbe1be709	-0.15224852
131	0x3d4abc7c	0.04949616
132	0x3e44f946	0.19235715
133	0x3e07ab1d	0.13248868
134	0x3e088f29	0.13335861
135	0x3e229824	0.1587835
136	0x3e102bd1	0.14079215
137	0x3d83a6e8	0.06428319
138	0xbe1c2f3f	-0.15252398
139	0xbe41fbfd	-0.18943782
140	0xbdbc1c42	-0.09185077
141	0xbcf1f350	-0.029534966
142	0xbe1505cc	-0.14552993
143	0x3d9b86b9	0.07594056
144	0x3d9d2f51	0.076750405
145	0xbd335368	-0.043780714
146	0x3db3f8ae	0.08787666
147	0x3d96f3c6	0.07370715
148	0x3e16787e	0.14694402
149	0x3e0e76b8	0.13912475
150	0xbdc31051	-0.095245965
151	0x3e6095ec	0.2193219
152	0xbcdb0802	-0.026737217
153	0xbc7b1656	-0.0153251495
154	0xbe56f86a	-0.209932
155	0xbe1256b5	-0.14290889
156	0xbe04b017	-0.12957798
157	0xbdc64da6	-0.09682779
158	0x3e148eaa	0.14507547
159	0xbd8f56c3	-0.0699897
160	0xbe2d7fc0	-0.16943264
161	0x3d9c97ec	0.07646164
162	0x3d880c45	0.06642965
163	0x3e12bf6e	0.14330837
164	0xbdefba74	-0.11705485
165	0x3d3c1e1e	0.04592716
166	0xbda383a6	-0.07984094
167	0xbd36d811	-0.04463965
168	0xbe330d95	-0.1748565
169	0xbdd29596	-0.102824375
170	0xbd7a207c	-0.061066136
171	0x3dc43f24	0.095823556
172	0x3d217e6a	0.0394272
173	0x3d5612fe	0.052264206
174	0x3e5fb577	0.21846567
175	0x3e5e8cad	0.21733351
176	0x3e12d5b0	0.14339328
177	0x3bb5b861	0.0055456613
178	0xbe21e939	-0.15811624
179	0x3e33bf22	0.1755338
180	0xbd11e5cf	-0.035619553
181	0xbceb20b5	-0.02870212
182	0xbe48aece	-0.19597933
183	0xbd3d7513	-0.04625423
184	0xbe0fe40e	-0.1405184
185	0x3e5e9657	0.21737038
186	0xbe44797f	-0.19186972
187	0xbe2d5804	-0.16928107
188	0x3b0b8649	0.0021289757
189	0xbe01448b	-0.12623803
190	0x3dc4f887	0.09617715
191	0xbda9b410	-0.08286297
192	0xbddd6e86	-0.10812096
193	0x3b696afa	0.0035616742
194	0x3e235bc5	0.15952976
195	0xbe1ff06d	-0.15619059
196	0x3de1368e	0.109967336
197	0x3e24f605	0.16109474
198	0x3e37bfb9	0.1794423
199	0xbe186eb4	-0.1488598
200	0x3cbe9456	0.023264091
201	0xbe04e1dd	-0.12976785
202	0x3e57cd2a	0.21074358
203	0xbda3642b	-0.0797809
204	0x3df35a34	0.11882439
205	0xbc5667f1	-0.013086305
206	0xbc8d9fed	-0.017288173
207	0xbca10b77	-0.019658787
208	0x3d08e190	0.03341824
209	0x3e10d1ab	0.14142482
210	0x3d0be331	0.034152213
211	0x3d8ad4ea	0.067788914
212	0xbe4c29b6	-0.19937786
213	0x3e416668	0.18886721
214	0x3e49b1cb	0.19696729
215	0x3e40bce0	0.1882205
216	0x3e1e8815	0.15481599
217	0xbe215b40	-0.15757465
218	0xbd9337bc	-0.07188365
219	0x3e4f7b95	0.20261987
220	0xbe28d4b5	-0.16487391
221	0x3e4625d6	0.19350371
222	0xbe396b68	-0.18107378
223	0xbe222efb	-0.15838234
224	0x3de51f8e	0.11187659
225	0xbe1f8bd7	-0.15580688
226	0xbd35ecb1	-0.04441518
227	0x3e282160	0.16418982
228	0x3e441c43	0.19151406
229	0x3e4f7d76	0.20262703
230	0xbd210ab1	-0.039316837
231	0xbe2eff42	-0.1708956
232	0x3e5e22e4	0.21692997
233	0xbd5376c0	-0.05162692
234	0xbdbe760d	-0.0929986
235	0x3d526ca9	0.051373158
236	0xbe204ea0	-0.15654993
237	0x3e1d6ace	0.15372774
238	0x3e05383f	0.13009737
239	0xbe335249	-0.17511858
240	0xbe4db14a	-0.20087162
241	0xbcc4b87c	-0.02401375
242	0x3dcae78d	0.09907446
243	0xbbd20311	-0.006409057
244	0xbe0084d8	-0.12550676
245	0xbb964f76	-0.004587109
246	0xbe59b835	-0.21261676
247	0xbe270f2a	-0.16314378
248	0xbe1ade20	-0.15123796
249	0x3e5f3a00	0.21799469
250	0x3e2e8e34	0.17046434
251	0xbd8aef28	-0.06783897
252	0x3bf4f2a7	0.0074752155
253	0x3dec20bf	0.11529683
254	0x3cafad34	0.021444894
255	0xbde595cc	-0.11210212

module.layers.0.bias f4 [128]
0	0x3e390bb5	0.18070872
1	0xbde34652	-0.11097397
2	0xbcc569d1	-0.024098309
3	0xbe0719ac	-0.13193387
4	0xbe20e660	-0.15712881
5	0xbe30b845	-0.17257793
6	0xbe2782ca	-0.16358486
7	0xbe03b493	-0.12861852
8	0x3d942dfd	0.07235334
9	0xbccbdf5b	-0.024886778
10	0x3e09012e	0.13379356
11	0x3e3430ed	0.17596789
12	0xbe1fc9c4	-0.15604311
13	0x3d4a2f32	0.049361415
14	0x3df23fe4	0.118285924
15	0xbe32bee6	-0.17455634
16	0xbd8471d4	-0.064670235
17	0x3e249858	0.1607374
18	0xbe26602a	-0.16247621
19	0x3e48da2e	0.19614479
20	0x3c742c10	0.014903083
21	0x3d34bf41	0.044127706
22	0x3e413d83	0.18871121
23	0xbe5006e5	-0.2031513
24	0x3e530382	0.20606807
25	0xbe429ee3	-0.19005923
26	0x3de1e20d	0.11029444
27	0xba1f27a2	-0.00060712744
28	0x3e36c500	0.17848587
29	0xbbb204ba	-0.0054326924
30	0xbe537451	-0.2064984
31	0x3d0309c0	0.03199172
32	0x3e1e7064	0.15472561
33	0xbd29804a	-0.04138211
34	0xbe50222e	-0.20325539
35	0xbc7e904e	-0.015537335
36	0x3cbbacf5	0.02290962
37	0x3d870077	0.065918855
38	0x3d998ce5	0.074975766
39	0xbce4c8b4	-0.027927734
40	0xbc12bd7a	-0.008956308
41	0xbcc909ec	-0.024540864
42	0x3dcbc64a	0.0994993
43	0x3d46d416	0.048542105
44	0x3da8846e	0.08228384
45	0xbcb5a051	-0.022171171
46	0xbc81fb85	-0.015867004
47	0x3e297d04	0.16551596
48	0x3d0ce27b	0.034395676
49	0xbe51d99f	-0.20493172
50	0x3d4e3f44	0.050353304
51	0x3e53d010	0.20684838
52	0xbd2cd063	-0.04219092
53	0x3e09a291	0.1344092
54	0xbe2294f2	-0.1587713
55	0xbccef004	-0.025260933
56	0x3e261364	0.16218334
57	0xbdde28d7	-0.10847633
58	0xbd635f86	-0.05551102
59	0x3c28922a	0.0102887545
60	0xbcd52124	-0.02601678
61	0xbd758a42	-0.059946306
62	0x3e245da1	0.16051342
63	0xbcf8ea35	-0.030385116
64	0xbd6f1040	-0.058365107
65	0x3e29685c	0.16543716
66	0x3d403a5f	0.046930667
67	0xbdc60b4a	-0.09670122
68	0x3e1ad4a1	0.15120174
69	0xbdcd070c	-0.1001111
70	0x3e669d4f	0.22520946
71	0x3e3bbfa2	0.18334821
72	0x3d08a062	0.033356078
73	0x3d733233	0.059374046
74	0xbd664830	-0.056221187
75	0xbe2d8d85	-0.16948517
76	0xbe21a876	-0.15786919
77	0x3da475a4	0.08030251
78	0x3de3b838	0.11119121
79	0x395df5e1	0.000211678
80	0xbd91793f	-0.07103204
81	0xbd9c00e6	-0.07617359
82	0xbdef6682	-0.11689474
83	0xbe05a768	-0.13052142
84	0x3e1dc2d8	0.15406358
85	0xbe305d94	-0.17223197
86	0x3e29636a	0.1654183
87	0x3e00d73b	0.12582104
88	0xbd72585f	-0.05916631
89	0xbc065b1e	-0.008200435
90	0xbd9bf744	-0.076155216
91	0xbe3d0e1c	-0.18462414
92	0x3ccf9033	0.025337314
93	0xbe2ef6bf	-0.17086314
94	0x3c1b85e2	0.009492369
95	0xbd75b0e8	-0.059983164
96	0xbe2c01b6	-0.16797528
97	0xbe54e686	-0.20791063
98	0x3e4a4a64	0.1975494
99	0x3e2d8040	0.16943455
100	0x3e5119ec	0.20420045
101	0x3dbaab86	0.09114747
102	0x3dd6d4ff	0.104898445
103	0x3de489e8	0.11159116
104	0x3e27ac23	0.16374259
105	0x3d262b8a	0.040568866
106	0x3cdf9d75	0.027296761
107	0x3e3b914d	0.18317147
108	0x3e0431ba	0.12909594
109	0xbdfae0a6	-0.122498795
110	0x3e16a7aa	0.14712396
111	0x3e556a0b	0.20841233
112	0xbda71620	-0.08158517
113	0xbe4cc7de	-0.19998118
114	0xbcc8a226	-0.02449138
115	0xbe103fa7	-0.14086781
116	0x3e6c6d4f	0.23088573
117	0xbd30a4f1	-0.04312605
118	0xbdd35ab2	-0.10320033
119	0x3e1ed5be	0.15511224
120	0x3daae8f6	0.08345215
121	0x3d82ad7b	0.06380745
122	0x3e4bd8a5	0.19906862
123	0xbe4fb3ca	-0.20283428
124	0x3dfb7c31	0.12279547
125	0xbdbf85de	-0.09351705
126	0x3db12b4e	0.08650838
127	0xbda31e36	-0.07964747

module.layers.2.weight f4 [64, 128]
0	0x3dadcac8	0.08485943
1	0xbc6c02e5	-0.014404987
2	0x3ba804c1	0.00512752
3	0xbd908347	-0.07056289
4	0x3d593c58	0.053036064
5	0xbd9fbb35	-0.07799379
6	0x3d2c339e	0.042041413
7	0x3d794086	0.06085255
8	0x3d7e6178	0.062104672
9	0x3d5334b6	0.05156394
10	0xbcfc77dc	-0.030818872
11	0x3c4ccc4a	0.012499878
12	0x3c9b5886	0.01896311
13	0xbd9bb07c	-0.07602021
14	0x3d20a52d	0.039220024
15	0xbd987bee	-0.07445513
16	0x3cff6829	0.031177597
17	0x3db2e4a4	0.08735016
18	0xbccd32d2	-0.025048647
19	0x3c0e1941	0.008673013
20	0x3da8c7e4	0.08241251
21	0x3d74b052	0.059738465
22	0x3d8e9eec	0.06963906
23	0xbd85f5c2	-0.06541015
24	0x3d037dca	0.032102384
25	0xbd90effa	-0.07077022
26	0x3c8fa1dc	0.017533235
27	0xbd8bf433	-0.06833687
28	0x3c91e04f	0.017807154
29	0x3d2dac9e	0.04240095
30	0xbdac8f17	-0.0842573
31	0xbc097d0b	-0.008391629
32	0xbce557d5	-0.027995983
33	0x3d890145	0.06689695
34	0xbc01e336	-0.007927706
35	0x3d834bfa	0.06410976
36	0xbd67dfa3	-0.05660976
37	0x3ccc1134	0.024910547
38	0x3d6f9e2d	0.058500458
39	0xba77a672	-0.00094471045
40	0xbd0d2817	-0.03446206
41	0xbcd96686	-0.026538145
42	0x3d94f513	0.07273307
43	0x3d26ecee	0.040753298
44	0x3c49afde	0.012309996
45	0x3d4907c6	0.04907968
46	0xbd441044	-0.047867075
47	0xbd9592ea	-0.07303412
48	0x39ab76d7	0.00032704204
49	0x3d823a59	0.06358785
50	0xbd948edc	-0.07253811
51	0xbd41a50a	-0.047276534
52	0x3cb7565c	0.022380047
53	0x3d3efd00	0.046628
54	0x3d23500e	0.039871268
55	0x3d16e8be	0.036843054
56	0xbd9ecfaf	-0.07754456
57	0xbd0654c4	-0.032795683
58	0x3d53fc6d	0.051754404
59	0x3c88d3ef	0.01670262
60	0x3d2b73be	0.041858427
61	0x3d930554	0.07178751
62	0x3d69e1b8	0.057100028
63	0xbcf6f109	-0.030144231
64	0xbd44b0f9	-0.048020337
65	0xbca8d132	-0.020607565
66	0xbba322ed	-0.0049785287
67	0xbc327f74	-0.010894645
68	0xbc42b1b2	-0.011883186
69	0x3c8c0d20	0.017096102
70	0x3d71ee8f	0.059065398
71	0xbd85b82d	-0.06529269
72	0x3d4643e8	0.048404604
73	0xbdb2bca9	-0.0872739
74	0xb9ed2ba4	-0.00045236677
75	0xbd9e3fa1	-0.0772698
76	0x3db7c16e	0.08972441
77	0xbd96cafe	-0.073629364
78	0xbd850bbc	-0.06496379
79	0x3d5faace	0.05460625
80	0x3d6d07eb	0.05786888
81	0x3d935778	0.07194418
82	0x3ca676d1	0.020320328
83	0xbda7fa15	-0.08201996
84	0xbd7cc45b	-0.061710697
85	0x3d5e11ab	0.05421607
86	0xbdb9ec95	-0.090783276
87	0x3db889de	0.09010671
88	0xbc551f2d	-0.013007921
89	0x3ca75d2c	0.02043017
90	0xbbe30564	-0.006928133
91	0xbc9bedb6	-0.019034248
92	0xbcdd3b33	-0.027005767
93	0x3cb16c5b	0.021658113
94	0xbc86f189	-0.016472595
95	0x3b91c1bf	0.004448145
96	0x3d9d01aa	0.07666333
97	0x3bb54a0e	0.0055325096
98	0xbd80a486	-0.0628138
99	0xbd8bdd00	-0.06829262
100	0x3d607781	0.054801468
101	0x3d026f0d	0.031844188
102	0x3c86a0b1	0.016434046
103	0xbd060494	-0.03271921
104	0xbd8d7de6	-0.06908779
105	0x3d8800d6	0.066407844
106	0xbdc19053	-0.09451356
107	0xbd4d86e8	-0.050177485
108	0x3d48efec	0.049056932
109	0x3d8a95e2	0.06766869
110	0xbd056adf	-0.032572623
111	0xbd9e1358	-0.07718533
112	0x3cc121e0	0.023575723
113	0x3aaf44b8	0.001337192
114	0xbc2d6347	-0.010582752
115	0xbd990122	-0.07470919
116	0x3d60d4e8	0.054890543
117	0x3c43e9a5	0.011957561
118	0x3caf6ed2	0.021415148
119	0x3d801153	0.06253304
120	0x3d97cda5	0.074122705
121	0xbca5a720	-0.020221293
122	0x3c4b8912	0.012422817
123	0xbd5ddae2	-0.05416382
124	0xbd9135a3	-0.070903085
125	0xbd487b10	-0.048945487
126	0x3c0a8ccf	0.008456423
127	0xbd41d156	-0.04731878
128	0x3d4f8c15	0.050670702
129	0x3d02a660	0.03189695
130	0xbccac853	-0.024753725
131	0x3d1df1a9	0.038560543
132	0x3d866d0d	0.065637685
133	0xbd00357d	-0.03130101
134	0x3d40f002	0.04710389
135	0x3d70bd7b	0.058774453
136	0x3da25573	0.079264544
137	0xbd83cd35	-0.064356245
138	0x3d8aa031	0.06768835
139	0x3b9b5fb8	0.004741635
140	0x3b6417f1	0.003480431
141	0x38ce9820	9.851181e-05
142	0xbd6be17e	-0.057588093
143	0xbd05557a	-0.03255222
144	0xbd8eacd3	-0.06966557
145	0xbc32d519	-0.010915064
146	0x3cc209bc	0.023686282
147	0xbd821e20	-0.06353402
148	0x3d113722	0.03545297
149	0xbdb27f30	-0.08715665
150	0x3d4056b2	0.04695768
151	0xbdb0204c	-0.0859991
152	0x3a9ac118	0.0011806814
153	0x3d8a8ed3	0.06765523
154	0xbda4aa15	-0.08040253
155	0xbd833921	-0.06407381
156	0xbd2613e0	-0.040546298
157	0xbd0b508b	-0.03401236
158	0xbd5275d5	-0.051381905
159	0x3d973b53	0.07384362
160	0xbd64c448	-0.05585125
161	0x3d2331da	0.039842464
162	0xbd7ec96e	-0.062203817
163	0xbccbba82	-0.024869207
164	0xbd9240f2	-0.071412936
165	0xbdaf1b27	-0.08550101
166	0xbd3c24e1	-0.045933608
167	0x3b8868a0	0.004162863
168	0x3d3c5953	0.045983624
169	0x3d18083c	0.037117228
170	0x3d532598	0.051549524
171	0x3da5e5ec	0.08100495
172	0xbb8e688e	-0.00434596
173	0x3db13617	0.08652895
174	0xbd9b254e	-0.07575475
175	0xbd38a2c2	-0.045077093
176	0xbd861585	-0.06547073
177	0xbd6fcd66	-0.058545493
178	0xbd7e5dee	-0.062101297
179	0xbda6c74e	-0.08143483
180	0x3dae1dac	0.08501753
181	0x3c6a3ecd	0.014297199
182	0x3d1c9a8d	0.03823333
183	0xbc8ad637	-0.016947849
184	0x3c6f454d	0.014603925
185	0xbd367aff	-0.044550892
186	0xbdb1accb	-0.08675536
187	0x3b93eeeb	0.004514565
188	0x3d544fbf	0.051833864
189	0xbc671096	-0.0141030755
190	0x3ce4e025	0.027938912
191	0x3d3cc21e	0.046083562
192	0x3d7b7b71	0.06139702
193	0xbda88d2b	-0.08230051
194	0xbd1da9b6	-0.038491927
195	0x3b3e5d01	0.0029047134
196	0x3db42756	0.08796565
197	0x3db48e1a	0.08816166
198	0xbd699a15	-0.05703171
199	0xbd6b6648	-0.05747059
200	0x3daf0972	0.085467234
201	0xbb8d7b1e	-0.004317655
202	0xbd57727c	-0.052599415
203	0xbd384b54	-0.044993713
204	0x3d547056	0.051864944
205	0x3d745bdd	0.05965792
206	0x3da0512a	0.07827981
207	0xbc9f4b1c	-0.019444995
208	0xbceef543	-0.029169684
209	0xbbed8265	-0.0072482103
210	0x3da009ad	0.078143455
211	0xbd9fe2d0	-0.07806933
212	0x3d458734	0.048224643
213	0xbd7dbca4	-0.06194748
214	0xbb540a42	-0.0032354747
215	0x3da4a045	0.080383815
216	0xbd071fe0	-0.032989383
217	0xbcf09c38	-0.029371366
218	0xbb1de25d	-0.0024091222
219	0x3d19f284	0.037584797
220	0x3d8f740b	0.07004555
221	0xbda6213b	-0.08111807
222	0x3d86881e	0.06568931
223	0xbcd4608e	-0.025924947
224	0x3c776096	0.0150987115
225	0xbd3b21c5	-0.045686502
226	0x3ce1e38f	0.027574329
227	0xbdad6ed6	-0.08468406
228	0xbd6881e8	-0.056764513
229	0xbd16dddf	-0.036832687
230	0x3d577f43	0.0526116
231	0x3ca446aa	0.020053227
232	0xbd742c79	-0.059612725
233	0x3c410470	0.011780843
234	0x3dbe13c2	0.09281112
235	0xbdb462d2	-0.08807911
236	0x3da1ca39	0.07899899
237	0x3d8a757f	0.06760692
238	0x3b096347	0.0020963715
239	0xbd4590b3	-0.0482337
240	0x3d20c1a4	0.03924717
241	0x3d292207	0.041292217
242	0xbd0271b1	-0.031846706
243	0xbd3eb829	-0.046562348
244	0xbd549365	-0.05189838
245	0xbd0ee69a	-0.034887888
246	0x3ca94dee	0.020667043
247	0x3d109e7e	0.0353074
248	0xbc23075a	-0.009950483
249	0x3d9ae411	0.075630315
250	0x3cd3834d	0.025819445
251	0x3cfe8472	0.031069014
252	0xbd398a8e	-0.04529815
253	0xbcc8ee30	-0.02452764
254	0x3d6b5cc4	0.057461515
255	0x3d4010c9	0.046891008

module.layers.2.bias f4 [64]
0	0x3b6fae03	0.0036572225
1	0xbd739cac	-0.059475586
2	0x3d853802	0.06504823
3	0xbcdef8d9	-0.02721827
4	0x3d93a278	0.07208723
5	0x3cdc3ed4	0.026885428
6	0xbd0d710e	-0.034531645
7	0xbdae3e38	-0.08507961
8	0xbcc4a6f6	-0.024005394
9	0xbcad1a6c	-0.021130763
10	0x3cf428bc	0.02980458
11	0xbbba6cda	-0.0056892456
12	0xbd9afafc	-0.07567403
13	0x3deef980	0.11668682
14	0xbd55c0fe	-0.052186005
15	0x3d5b966a	0.053610243
16	0x3cc7e057	0.024398966
17	0x3d03fc47	0.032223012
18	0x3b675cdb	0.003530315
19	0xbda20759	-0.07911558
20	0x3d92d29c	0.07169077
21	0x3d60be84	0.05486919
22	0x3d1d2902	0.038369186
23	0xbdbe5568	-0.09293634
24	0xbcb1ece1	-0.021719398
25	0xbd22dce9	-0.039761458
26	0x3d01a1bd	0.031648386
27	0xbcae4b3e	-0.021276113
28	0xbc4704e9	-0.012147167
29	0x3da48a5f	0.08034205
30	0x3da7a460	0.08185649
31	0xbbbd07eb	-0.005768766
32	0xbcd31448	-0.025766507
33	0xbd9a3c1f	-0.075309984
34	0xbd5c3dea	-0.053769983
35	0xbca3a568	-0.019976333
36	0x3d98f7dc	0.074691504
37	0xbc25c9c1	-0.010118903
38	0x3da75ad2	0.081716195
39	0x3da23298	0.07919806
40	0xbc4d7607	-0.012540347
41	0x3ccb4c72	0.024816725
42	0x3da18e79	0.07888503
43	0x3cee59b6	0.029095512
44	0x3d885b7a	0.06658073
45	0x3c20bb5d	0.009810296
46	0x3d09b403	0.03361894
47	0x3dad8bca	0.08473928
48	0x3d90438a	0.07044132
49	0x3d6bf405	0.057605762
50	0xbd940ae2	-0.07228638
51	0x3dbbed10	0.091760755
52	0xbd23a4f5	-0.039952237
53	0xbd4e68ea	-0.050393023
54	0x3c8041a6	0.015656304
55	0x3dc896b5	0.0979437
56	0x3d945b0b	0.072439276
57	0x3d64a14b	0.055817883
58	0x3d92e26b	0.07172092
59	0x3d5dfbb6	0.05419513
60	0x3d9f76c2	0.07786323
61	0xbd0561b1	-0.03256387
62	0xbd87ca1a	-0.06630345
63	0x3c9deb8d	0.019277358

module.layers.4.weight f4 [32, 64]
0	0xbd1ee019	-0.038787935
1	0x3cfc0898	0.030765817
2	0xbb45d150	-0.0030184574
3	0x3d9a66c1	0.0753913
4	0xbdb14a8f	-0.08656799
5	0x3b64824a	0.0034867697
6	0xbd813aaa	-0.063100174
7	0xbdc313a5	-0.09525231
8	0x3d405892	0.046959467
9	0x3de11e3c	0.10992095
10	0xbcd2f97c	-0.025753729
11	0xbd7b3000	-0.061325073
12	0x3de5f540	0.11228418
13	0x3da18d8f	0.07888328
14	0xbd7737fd	-0.06035613
15	0xbd84a76a	-0.06477244
16	0x3d39ea6e	0.045389585
17	0xbde0ef3a	-0.10983129
18	0x3d30d68c	0.043173358
19	0x3ce763c8	0.028245822
20	0xbca6174b	-0.020274779
21	0xbd93045a	-0.07178564
22	0xbd544383	-0.051822197
23	0xbb0ac7a9	-0.0021176136
24	0x3dad9c1f	0.08477043
25	0xbc98d5ef	-0.018656699
26	0xbdd00424	-0.1015704
27	0xbd94cfb5	-0.072661795
28	0x3c16177e	0.009160874
29	0x3ce3d12c	0.027809702
30	0xbbff30bd	-0.0077877925
31	0x3c9c7099	0.01909666
32	0x3da76940	0.08174372
33	0xbd0c24bf	-0.03421473
34	0xbdb90c5e	-0.09035562
35	0x3dd09156	0.10183971
36	0x3c488d9c	0.012240794
37	0xbdd4cb40	-0.10390329
38	0x3c891cde	0.016737398
39	0x3bf32d20	0.007421151
40	0xbdd59e2f	-0.10430562
41	0x3c8095b0	0.015696377
42	0x3d61d31f	0.05513298
43	0xbdecbe11	-0.1155969
44	0x3d538f26	0.05165019
45	0xbd916825	-0.07099942
46	0xbc84270a	-0.016131897
47	0x3df8bba8	0.121451676
48	0xbda32dee	-0.07967745
49	0x3d0a133d	0.033709753
50	0xbdc96b0b	-0.0983487
51	0xbdada56e	-0.08478819
52	0x3d8f25ce	0.069896325
53	0x3d0ed715	0.034873087
54	0xbdde7704	-0.10862544
55	0x3d2fddf8	0.042936295
56	0xbdce976f	-0.100874774
57	0x3de8867a	0.11353774
58	0x3df99790	0.121871114
59	0x3d96b6b6	0.07359068
60	0xba50a6db	-0.0007959434
61	0xbdf057b4	-0.11735478
62	0x3d7185c0	0.058965445
63	0xbd8c625e	-0.068546996
64	0xbcef40c1	-0.029205682
65	0xbda33ae1	-0.07970215
66	0x3ab517b5	0.0013816269
67	0x3d6fb2e9	0.05852023
68	0x3de94c08	0.11391455
69	0x3c2f7ceb	0.010710935
70	0xbc118a1e	-0.008883027
71	0x3da9319c	0.08261415
72	0x3dfc2b85	0.12312988
73	0xbd3e18ac	-0.046410248
74	0xbdee62b3	-0.11639919
75	0xbdbc86de	-0.092054114
76	0x3ce492e6	0.027902078
77	0xbdd47ee5	-0.10375766
78	0x3c93625b	0.017991235
79	0x3da35273	0.0797471
80	0x3c932434	0.017961599
81	0x3d1a269a	0.03763447
82	0xbdd94144	-0.106081516
83	0x3da36482	0.07978155
84	0x3d6e9cf4	0.05825515
85	0xbd9f5747	-0.07780319
86	0x3c88daa4	0.016705818
87	0x3d65364f	0.055959996
88	0xbdb34d0f	-0.08754932
89	0x3ba5ddee	0.0050618565
90	0x3c102e18	0.008800052
91	0x3d92a9f0	0.07161319
92	0x3dd778d3	0.10521092
93	0xbba12c36	-0.0049186004
94	0x3b8604f9	0.0040899483
95	0xbcd24873	-0.025669312
96	0x3b8fd132	0.0043889517
97	0xbbb4ec12	-0.005521306
98	0x3d25f85e	0.040520065
99	0x3dc4b904	0.096056014
100	0xbddca78f	-0.10774147
101	0x3d0f7a9c	0.03502904
102	0x3c14185a	0.009039009
103	0x3dc3b9de	0.09556936
104	0xbcd81d1f	-0.026381074
105	0x3bb322eb	0.005466809
106	0x3ddcd072	0.10781945
107	0xbd4e62b6	-0.050387107
108	0xbdc4b746	-0.09605269
109	0xbde4087a	-0.11134429
110	0xbd9f5c7c	-0.07781312
111	0xbc0416ba	-0.008062059
112	0xbdeb8ad1	-0.115010865
113	0xbd4f7e60	-0.05065763
114	0x3c4576cc	0.012052249
115	0x3decc94d	0.115618326
116	0xba51f9c6	-0.00080099364
117	0x3dbb641e	0.09149955
118	0x3d93e03e	0.07220505
119	0xbd16bece	-0.03680306
120	0x3d92272d	0.071363784
121	0xbd3f5b5a	-0.04671798
122	0x3c988667	0.018618776
123	0xbcc8dbdc	-0.0245189
124	0x3ccf0358	0.02527015
125	0xbd205728	-0.03914562
126	0x3d4996f8	0.04921624
127	0x3d6c249a	0.057652093
128	0xbc00b80b	-0.007856379
129	0xbdedf749	-0.116194315
130	0xbde8d894	-0.11369434
131	0xbd302893	-0.043007445
132	0xbd4dd41e	-0.05025112
133	0x3cf471ce	0.029839423
134	0x3c91584c	0.017742299
135	0xbc487c14	-0.012236614
136	0x3d0a4ef0	0.033766687
137	0x3c8010fc	0.015633099
138	0x3dd66272	0.10467996
139	0x3d26b35f	0.040698405
140	0xbd85a64b	-0.065258585
141	0xbdd2d04d	-0.102936365
142	0xbd991e03	-0.074764274
143	0xbd90c2e4	-0.070684224
144	0x3d8910f0	0.06692684
145	0xbc6e6793	-0.014551061
146	0xbd9bfc9f	-0.07616543
147	0xbdf71e50	-0.120663285
148	0xbbd6c575	-0.0065543004
149	0xbd3715dd	-0.044698585
150	0xbd948e91	-0.07253755
151	0x3d9cc1b2	0.07654132
152	0x3ced6440	0.028978467
153	0xbcf7316e	-0.030174937
154	0x3d276444	0.040867105
155	0x3c9ed0db	0.0193867
156	0xbc21e0b8	-0.009880237
157	0xbc989e0d	-0.018630052
158	0x3d9c522c	0.076328605
159	0xbdcf09e8	-0.10109311
160	0x3d55dedf	0.0522145
161	0xbdc7cd17	-0.09755915
162	0xbdc7ad40	-0.09749842
163	0xbd1c769a	-0.038199045
164	0xbd1c60ae	-0.03817814
165	0xbdab1871	-0.08354271
166	0xbdab63af	-0.083686225
167	0x3d491cf8	0.049099892
168	0x3d038c7d	0.032116402
169	0x3d92ecc8	0.07174069
170	0xbd877dc6	-0.06615786
171	0xbddff2a9	-0.109349556
172	0xbc76682e	-0.015039487
173	0x3d1d0391	0.03833348
174	0xbc0453da	-0.008076632
175	0xbd89d7f8	-0.06730646
176	0xbd567db6	-0.05236598
177	0x3d40e714	0.047095373
178	0xbcfbf98c	-0.030758642
179	0x3dd622e1	0.104558714
180	0xbcb5e32b	-0.022203049
181	0xbde521de	-0.111881
182	0xbdaeb259	-0.08530111
183	0x3d88f8fc	0.06688115
184	0x3ddea191	0.1087066
185	0xbd812222	-0.063053384
186	0x3d2bf970	0.04198593
187	0xbd04f9c3	-0.032464754
188	0xbce0e57d	-0.027453179
189	0x3d30d32a	0.04317013
190	0xbd93df89	-0.0722037
191	0xbd770710	-0.06030947
192	0xbd109f33	-0.035308074
193	0xbdb8cdaf	-0.09023606
194	0xbd8821eb	-0.06647094
195	0xbdaaefcb	-0.08346518
196	0x3decd468	0.11563951
197	0xbdbca4f4	-0.0921115
198	0x3de36583	0.11103346
199	0x3dd71cc1	0.10503531
200	0xbde083b1	-0.10962618
201	0xbda0efa6	-0.07858209
202	0x3d30f5b4	0.04320307
203	0x3d647625	0.055776734
204	0x3de2712f	0.11056744
205	0xbd96fb51	-0.073721536
206	0xbdb81020	-0.089874506
207	0x3ca0b230	0.019616216
208	0xbd1f2840	-0.038856745
209	0xbd33d6b5	-0.043905932
210	0xbce3c157	-0.027802153
211	0x3db37e22	0.08764292
212	0x3c8c5b20	0.017133296
213	0x3d9912eb	0.074743114
214	0xbdcbe130	-0.099550605
215	0xbd63f45e	-0.05565297
216	0x3d38f771	0.045157854
217	0xbdcbfce8	-0.099603474
218	0x3e02215d	0.1270804
219	0xbde2bfca	-0.11071737
220	0xbdbdce64	-0.092678815
221	0xbd27fd0c	-0.04101281
222	0x3da00283	0.07812979
223	0xbbd34d2b	-0.006448408
224	0x3d4491be	0.047990553
225	0x3cbd036c	0.02307292
226	0x3d98a0e9	0.07452566
227	0x3d6aea4a	0.05735234
228	0x3da1f713	0.07908454
229	0x3b6bafc3	0.0035962916
230	0xbda0f787	-0.07859712
231	0x3ddd87bc	0.10816905
232	0xbd2a6701	-0.04160214
233	0x3d10353a	0.03520701
234	0xbd497b78	-0.049190015
235	0xbd880a2c	-0.06642565
236	0xbdd8005e	-0.10546945
237	0xbb095761	-0.0020956623
238	0x3d8c7692	0.06858553
239	0xbdc81dd2	-0.09771313
240	0xbdc3a37e	-0.09552668
241	0xbc2cc00a	-0.010543833
242	0xbbfae063	-0.0076561435
243	0xbdcf686f	-0.10127341
244	0xbc66a8c5	-0.014078324
245	0x3df61f10	0.120176435
246	0x3dd2e57b	0.10297676
247	0x3c733984	0.014845256
248	0x3e04f560	0.12984228
249	0xbca4b796	-0.020107072
250	0xbdad688a	-0.08467205
251	0x3d1f6f9a	0.03892479
252	0x3da65a59	0.08122701
253	0xbd5431f8	-0.051805466
254	0xbdc01854	-0.0937964
255	0xbd27006c	-0.040771887

module.layers.4.bias f4 [32]
0	0xbddbdc7b	-0.10735413
1	0xbcf0e438	-0.029405698
2	0xbdb4a18c	-0.08819875
3	0x3e13afad	0.14422484
4	0xbd167c4b	-0.03673963
5	0xbd830fd3	-0.063995026
6	0x3e641bfa	0.22276297
7	0x3d1e12f4	0.038592294
8	0x3b9f2ce8	0.004857648
9	0xbd1fe16b	-0.039033335
10	0x3c16b5bb	0.009198601
11	0xbdc9b356	-0.09848659
12	0xbdd8810b	-0.10571488
13	0x3df39079	0.1189279
14	0x3e07455f	0.13210057
15	0x3ca19a55	0.019726912
16	0x3df51d21	0.119684465
17	0x3c298d79	0.010348671
18	0xbd1f9b16	-0.03896626
19	0x3dab625a	0.083683684
20	0xbd3878c8	-0.04503706
21	0x3d8770c3	0.066133045
22	0x3db36f16	0.08761422
23	0xbdf4d3d2	-0.11954464
24	0x3d77f119	0.060532663
25	0x3dc4be77	0.09606641
26	0x3d3a72fb	0.04551981
27	0x3cc3c8c1	0.023899438
28	0xbcb4ebbc	-0.022085063
29	0x3e2796b1	0.16366078
30	0x3d861511	0.06546987
31	0x3e095b34	0.13413697

module.layers.6.weight f4 [2, 32]
0	0x3de175ae	0.11008774
1	0xbe01d514	-0.12678939
2	0xbc4399ec	-0.011938553
3	0x3daf1f70	0.08550918
4	0x3deb4c04	0.11489108
5	0x3d24a21e	0.04019367
6	0x3eb52e62	0.3538695
7	0xbdad563d	-0.08463714
8	0xbdb3720f	-0.08761989
9	0x3df6e835	0.12056009
10	0x3cfef1d8	0.03112118
11	0x3e1e2741	0.15444662
12	0xbe0ec139	-0.13940896
13	0x3d805f66	0.06268196
14	0xbe9fa3f9	-0.3117979
15	0xbca8d231	-0.02060804
16	0xbe156265	-0.14588316
17	0xbd2c81a0	-0.042115808
18	0xbd1cc380	-0.03827238
19	0xbe7dd4b6	-0.24788174
20	0xbd55fd6e	-0.052243643
21	0x3e4a5c82	0.19761851
22	0x3d8cbcc1	0.068719395
23	0x3e200a9b	0.15629046
24	0xbea8035c	-0.32815063
25	0xbd1bb1e2	-0.03801144
26	0xbde7c298	-0.11316413
27	0x3d9e0215	0.07715241
28	0x3d778618	0.060430616
29	0x3d7605f2	0.060064264
30	0x3e2fa2ec	0.17151994
31	0x3e2932c4	0.16523272
32	0xbe16b74c	-0.1471836
33	0xbd9d950b	-0.07694443
34	0xbcde9c6f	-0.027174203
35	0xbe00d983	-0.12582974
36	0xba44b762	-0.0007504133
37	0xbe1957c2	-0.14974883
38	0xbeb0b924	-0.3451625
39	0x3da001cf	0.07812845
40	0x3d535661	0.05159605
41	0x3d722d24	0.05912508
42	0x3e2be359	0.16785945
43	0x3dfe6781	0.124220856
44	0x3ce9c40b	0.028535863
45	0x3d7713ca	0.060321607
46	0x3e627368	0.22114336
47	0x3e165958	0.1468252
48	0xbd93708a	-0.071991995
49	0x3e4effb8	0.20214736
50	0x3dbbfe55	0.09179369
51	0x3e8d0cd8	0.27548862
52	0x3d6e7e5b	0.05822597
53	0xbe42bb94	-0.19016868
54	0xbe1c0f3d	-0.15240188
55	0x3e1c45f3	0.15261059
56	0x3eac5d34	0.33664858
57	0x3bc02ec6	0.005864951
58	0x3dcecb05	0.10097317
59	0xbe75227a	-0.23938933
60	0xbde28877	-0.11061185
61	0xbea07e35	-0.31346288
62	0xbe0aece4	-0.13566929
63	0xbe058364	-0.13038403

module.layers.6.bias f4 [2]
0	0xbcd48d8c	-0.025946401
1	0x3c0a9a78	0.00845968
