result/model/20230609180800_Experiment_FedAvg_latest.pt (torch, 54607 bytes, 8 tensors)

module.layers.0.weight f4 [128, 20]
000000 ab c0 eb 3d 00 7a cb bd 73 d0 35 bd 31 e5 d5 3d
       0.11511358 -0.09935379 -0.044388246 0.104441054
000010 30 d2 57 be 27 3c 0a 3e 21 86 3c bd 03 45 ea 3d
       -0.21076274 0.13499509 -0.046026353 0.11438944
000020 14 67 08 3d 4d 51 e2 bc 73 93 7c 3d 98 98 3b 3c
       0.033301428 -0.027626658 0.061664056 0.011449955
000030 9b b1 a7 3d 5b 60 b2 bd f5 d5 88 bc 3f 19 a6 bc
       0.081881724 -0.087097846 -0.016703585 -0.02027571
000040 fc 81 03 3d f0 de 8c b9 cc b9 45 3e 1b d2 8e 3d
       0.032106385 -0.00026868982 0.19309157 0.06973668
000050 ae 46 ab bd ca 84 09 be 80 1f 15 bd 8d 3a c5 bd
       -0.083630905 -0.13429561 -0.036406994 -0.09630308
000060 10 f4 92 bd 14 22 28 3c 8b f0 07 3e c3 b5 f6 3d
       -0.071754575 0.010262031 0.13275354 0.12046387
000070 cb 71 5f be f8 ed 0e 3e 5a 20 80 3d 0d d8 58 3e
       -0.21820752 0.13957965 0.062561706 0.21176167
000080 77 ff 16 3e 4e 8a 4f be 6d 5f 59 be 9e 9e dc bd
       0.1474589 -0.20267603 -0.21227808 -0.10772441
000090 c2 6c 49 3e 1e a5 18 bd 45 9b c6 3d 36 55 d4 bd
       0.19670394 -0.037266843 0.09697584 -0.10367815
0000a0 1b e4 60 3e 7f 0e c2 bd 21 de 2a 3e 4a e6 2e 3b
       0.21962015 -0.09475421 0.16686298 0.0026687556
0000b0 77 e4 f0 bd 60 00 ec 3d 03 ce f2 bd 1a 7f 87 3d
       -0.11762326 0.11523509 -0.118557 0.066160396
0000c0 9a 35 84 bd b0 02 cc bc db 3b 5c be 8b 26 d9 bd
       -0.06455536 -0.024903625 -0.21507208 -0.106030546
0000d0 a6 18 f8 3d 42 9c 5f bd d7 d7 63 3e 9d 3e 37 3e
       0.12114076 -0.05459238 0.22250305 0.17894979
0000e0 16 0c 2f bc f0 4e 18 be b6 79 09 3e a4 57 8e 3d
       -0.010684034 -0.14873862 0.13425335 0.0695031
0000f0 17 4d 13 be f4 66 13 3e d2 2e 09 3e 68 17 4b 3e
       -0.14384876 0.14394742 0.13396767 0.19833148
000100 3a 55 ff bd 1a ae 15 bd 8e 70 7c bb 50 4c 0a 3d
       -0.124674276 -0.03654299 -0.0038519236 0.033764184
000110 78 78 2d be 4a f6 23 be 40 c9 f8 3d 71 64 56 bd
       -0.16940486 -0.1601192 0.121477604 -0.052341882
000120 54 27 df 3d a9 32 35 3c d7 26 95 3d b3 6e 49 3d
       0.10896173 0.011059442 0.07282799 0.049177837
000130 50 16 a5 3d fe ad e3 3d bd 9d 53 be e0 e2 e4 3d
       0.080608964 0.11117171 -0.20665641 0.111760855
000140 2a c1 20 be d9 ce 2c be 7f ee 5b 3c 26 54 1c bd
       -0.15698686 -0.16875781 0.013423561 -0.038166188
000150 0d 54 06 3e c8 ae 04 be 88 67 4b be d2 a4 26 3e
       0.13118 -0.12957299 -0.19863713 0.16273811
000160 e3 3f 07 bd 39 c7 00 3e 54 db 93 3d d3 9f 2b be
       -0.03301991 0.12575997 0.07219568 -0.16760187
000170 5f ae 36 3d c5 de 5b 3d f4 36 19 be 90 1d d9 bd
       0.044599887 0.053679246 -0.14962369 -0.10601342
000180 5e 03 9c 3d 0a 8a 23 3d 8a 99 c1 bd 87 5d 8a bd
       0.0761783 0.039926566 -0.094531134 -0.0675612
000190 1a 8d 50 3e aa d9 25 bd 7e f6 01 3e fc bd c6 3d
       0.20366326 -0.040490784 0.12691686 0.097042054
0001a0 c8 f3 13 be 35 62 42 be 45 af 5a 3e 8a e1 30 3c
       -0.14448464 -0.18982776 0.21355923 0.01079596
0001b0 33 dc 1b 3e 2d b2 41 3d 74 3d 93 3d 3e ac 2a 3e
       0.15220718 0.047289062 0.07189456 0.16667268
0001c0 70 f0 58 3e 4b d1 16 be 17 3d e7 3c d6 31 2b 3e
       0.2118547 -0.14728276 0.028227372 0.1671823
0001d0 e9 e8 25 3e 20 72 0d 3e a8 45 25 be e2 7b 24 be
       0.1620213 0.13813066 -0.16139853 -0.16062883
0001e0 22 10 09 be 18 b4 d6 3c cb d3 5f 3e 36 10 10 be
       -0.1338506 0.026208922 0.21858136 -0.14068684
0001f0 b8 39 f9 3d 00 49 fc bd 92 2f 56 be 63 fb 35 bd
       0.12169212 -0.12318611 -0.20916584 -0.044429194
000200 1b 91 05 3e 9f 97 4e 3e 42 c6 10 be 5f ff 48 3d
       0.13043635 0.20175026 -0.1413813 0.049071666
000210 0c f5 45 3e f3 33 12 3e 43 22 0d 3e 5e 8b 22 3e
       0.19331759 0.1427763 0.13782601 0.15873477
000220 e1 11 10 3e 11 c3 70 3d 8d d4 1c be 4c fd 40 be
       0.1406932 0.05877978 -0.15315457 -0.18846625
000230 60 d4 d0 bd 2c 55 db bc 67 04 0e be ac e1 a6 3d
       -0.10196757 -0.026774012 -0.13868867 0.08148512
000240 c4 c2 8e 3d 72 3f 4d bd 8f 4b b1 3d 62 96 97 3d
       0.06970742 -0.050109334 0.0865699 0.0740173
000250 22 5a 0d 3e 2e 0c 18 3e 7d b7 9e bd 2e bb 5f 3e
       0.13803914 0.14848396 -0.07749841 0.21848747
000260 19 5c d2 bc 10 55 1a bc b5 07 58 be dc 45 13 be
       -0.025678681 -0.009419695 -0.2109669 -0.14382118
000270 1e ce 05 be 96 03 c3 bd 57 cd 20 3e d5 e2 95 bd
       -0.13066909 -0.09522168 0.15703331 -0.073186554
000280 e0 57 2a be 25 49 ae 3d e8 de 8e 3d 04 3f 14 3e
       -0.16635084 0.08510045 0.0697611 0.14477164
000290 14 7c eb bd c6 71 46 3d b8 e9 a5 bd fe 00 49 bd
       -0.114982754 0.048448347 -0.08101219 -0.04907321
0002a0 7c 26 36 be a9 04 d4 bd be 86 8d bd 7e ef c3 3d
       -0.17788118 -0.10352451 -0.06910466 0.09567164
0002b0 ba b7 26 3d 50 98 5b 3d e3 5c 63 3e 63 b5 5e 3e
       0.04070256 0.053612053 0.22203402 0.21748881
0002c0 cf fa 1a 3e 90 17 ee 3b 6b 4a 1e be 0d 82 32 3e
       0.15134738 0.0072659925 -0.15458076 0.17432423
0002d0 c0 38 60 bd e6 40 a2 bc fb 91 47 be 68 10 35 bd
       -0.05474162 -0.019806337 -0.19489281 -0.0442051
0002e0 d0 44 13 be c4 ff 52 3e 63 d5 45 be db 72 30 be
       -0.14381719 0.2060538 -0.19319682 -0.17231314
0002f0 ce 67 d4 bb 0f 9b fc bd ef 23 a2 3d 92 0d ae bd
       -0.006482101 -0.123342626 0.0791701 -0.08498682
000300 58 90 d7 bd ef de 24 3c fc d1 24 3e 8a f0 20 be
       -0.10525578 0.010062917 0.16095728 -0.15716758
000310 fc 08 d6 3d 39 36 14 3e 7e 99 5c 3e bc 23 20 be
       0.104509324 0.1447381 0.21542928 -0.15638632
000320 2e 3b 54 3d 4a 94 26 be 3c c5 46 3e 64 79 b1 bd
       0.05181425 -0.16267505 0.19411176 -0.086657315
000330 c9 54 07 3e 6a d9 c0 3b f4 3c 96 bc 3b 3f 1d bc
       0.13215937 0.005885293 -0.018339612 -0.009597595
000340 80 4e 16 3d 22 15 e1 3d f0 84 18 3d a7 88 8a 3d
       0.036695957 0.10990359 0.037236154 0.067643456
000350 a7 ac 4d be d2 54 2b 3e 5d 28 48 3e 06 5f 3d 3e
       -0.20085393 0.16731575 0.19546647 0.1849328
000360 08 69 29 3e ab 0c 25 be cb 13 a7 bd 69 11 4a 3e
       0.16543972 -0.16118114 -0.08158072 0.19733204
000370 4b 66 2d be 63 a9 4d 3e eb c7 36 be b2 3d 21 be
       -0.16933553 0.20084147 -0.178497 -0.15746191
000380 73 60 e0 3d 45 b6 23 be 7d 57 4d bd c5 ee 28 3e
       0.10955896 -0.15987499 -0.050132263 0.16497333
000390 98 ae 37 3e 90 13 55 3e 90 72 3b bd a8 1e 31 be
       0.17937696 0.20808244 -0.045763552 -0.1729685
0003a0 f6 09 61 3e 82 b3 4d bd ae a3 bc bd 6e 41 5e 3d
       0.21976456 -0.05022002 -0.09210907 0.054261617
0003b0 9b 44 20 be 27 ea 17 3e e0 56 0c 3e 23 0c 36 be
       -0.15651171 0.14835416 0.13705015 -0.17778067
0003c0 0a 07 3c be ff 3c 9d bc 62 7d c0 3d 44 83 d7 bb
       -0.1836206 -0.019194124 0.09398915 -0.0065769274
0003d0 cb 66 e8 bd 32 4b 97 3b b5 15 57 be 08 ba 21 be
       -0.11347731 0.0046171183 -0.21004374 -0.15793622
0003e0 67 67 18 be 3b 16 3d 3e a4 f7 49 3e 3b 12 9b bd
       -0.14883195 0.18465512 0.19723374 -0.075718366
0003f0 19 96 1d 3c 8a 94 cd 3d ba 18 da 3c e2 2a e5 bd
       0.009618306 0.10038097 0.026623119 -0.1118982

module.layers.0.bias f4 [128]
000000 f8 1a 2e 3e ca fe e8 bd 37 b3 ce bc fc 1c 05 be
       0.17002475 -0.11376722 -0.02523194 -0.12999338
000010 62 c1 25 be a5 a2 33 be 60 de 24 be 54 79 09 be
       -0.16187051 -0.17542513 -0.16100454 -0.1342519
000020 a6 9e 94 3d 8d 00 f8 bc 29 c5 10 3e c4 73 2f 3e
       0.07256822 -0.0302737 0.1413771 0.17134005
000030 bd c7 30 be 76 6a 30 3d 77 05 f8 3d 0e df 38 be
       -0.17263694 0.04307028 0.12110417 -0.18053839
000040 a0 8e 85 bd 5a 0f 25 3e 75 aa 28 be 4e 47 4c 3e
       -0.06521344 0.16119137 -0.16471274 0.19949076
000050 e0 c2 99 3c 3e ad 24 3d 5c d1 3f 3e 62 9a 54 be
       0.018769681 0.04020428 0.18732208 -0.20762017
000060 66 35 43 3e b2 09 4c be e4 59 d9 3d 7a 49 2f bc
       0.19063339 -0.19925573 0.106128484 -0.0106986705
000070 9e 0d 34 3e bc 0d 40 bb 80 bb 5f be b0 a6 ea 3c
       0.1758332 -0.0029305061 -0.2184887 0.028643936
000080 5b 7a 18 3e 3f 84 33 bd 33 4f 58 be f5 18 f2 bc
       0.14890425 -0.04382729 -0.21123962 -0.029552916
000090 bd 74 92 3c 60 d6 6b 3d 66 3a 93 3d a4 6e f8 bc
       0.01787793 0.05757749 0.07188873 -0.030326195
0000a0 fd ab 3f bc e8 29 3d bd 8c 21 b2 3d c2 e1 4e 3d
       -0.01169872 -0.046182543 0.08697805 0.05050827
0000b0 7a 70 b7 3d 6e 9f ad bc 98 bf a3 bc 86 9d 27 3e
       0.08957 -0.021194186 -0.01998882 0.16368684
0000c0 d2 7b d8 3c 43 9d 51 be ab c2 36 3d 7c e9 52 3e
       0.02642623 -0.20470147 0.044619244 0.2059688
0000d0 79 c7 32 bd e9 97 09 3e da 2b 24 be db 2d 08 bd
       -0.043647263 0.13436855 -0.16032353 -0.033246856
0000e0 22 ef 1a 3e 66 8d e3 bd 76 df 66 bd 06 ca 41 3b
       0.15130284 -0.11110954 -0.056365453 0.0029569878
0000f0 33 59 05 bd a2 9d 80 bd 55 09 1f 3e 09 f8 27 bd
       -0.03255577 -0.06280066 0.15530904 -0.04100803
000100 bc a5 76 bd c4 1c 2b 3e 61 69 4e 3d ae 58 d7 bd
       -0.06021665 0.16710192 0.050393466 -0.10514961
000110 51 5a 0a 3e cf 12 df bd 2a 38 64 3e 5a 4a 3e 3e
       0.13511015 -0.10892259 0.2228705 0.1858305
000120 fd c4 af 3c c4 ff 77 3d 31 d7 b2 bd 17 27 31 be
       0.021456236 0.06054665 -0.08732451 -0.17300068
000130 40 5d 23 be 1f fa 92 3d 2d 81 df 3d 6b 71 cd ba
       -0.15953541 0.07176613 0.1091331 -0.001567406
000140 70 5c 97 bd e7 aa 97 bd 74 8d fc bd dc e4 0a be
       -0.07390678 -0.07405644 -0.123316675 -0.13563865
000150 11 4c 17 3e 5e 49 45 be 23 eb 27 3e 14 f2 fa 3d
       0.14775111 -0.19266269 0.16398291 0.12253204
000160 a5 68 7e bd cc 55 e3 bc db 8e 9a bd db c4 3f be
       -0.062111516 -0.027750872 -0.07546779 -0.18727438
000170 18 a1 9c 3c b9 6c 2f be 86 df cd 3b c8 8d 9d bd
       0.019119784 -0.17131318 0.0062827496 -0.07693058
000180 90 dd 30 be 3a e6 53 be 09 bc 4a 3e 9d c3 30 3e
       -0.1727202 -0.20693293 0.19798292 0.1726212
000190 06 ab 50 3e cb 7e ad 3d c5 19 cd 3d a1 15 e0 3d
       0.2037774 0.084714495 0.10014681 0.109416254
0001a0 ec b4 27 3e d9 69 11 3d 82 71 c0 3c 5e ed 28 3e
       0.1637761 0.035501335 0.023491625 0.16496798
0001b0 ae e3 d3 3d 26 91 0a be 34 66 19 3e 73 16 5c 3e
       0.10346161 -0.13531932 0.14980394 0.21492939
0001c0 1f f0 ad bd 3e 56 58 be d0 35 17 bd bb 4f 15 be
       -0.08493065 -0.21126649 -0.036916554 -0.14581196
0001d0 67 bd 63 3e 36 c4 3e bd 1b d9 e4 bd 11 bd 12 3e
       0.2224022 -0.04657384 -0.11174222 0.14329936
0001e0 93 a9 ae 3d 02 86 86 3d 88 1a 4d 3e 6f 55 60 be
       0.085284375 0.06568529 0.20029652 -0.2190759
0001f0 20 e7 de 3d 7c 99 d6 bd 77 ba 9c 3d 24 76 a6 bd
       0.10883927 -0.104784936 0.07652753 -0.08128002

module.layers.2.weight f4 [64, 128]
000000 25 2d a7 3d 48 0b 83 bc 7d 4b f9 3b 9d bf 8f bd
       0.081629075 -0.01599659 0.007607876 -0.07018969
000010 42 86 5c 3d fb b3 b1 bd 3f e3 3f 3d f0 36 80 3d
       0.053838976 -0.08676907 0.04684758 0.062604785
000020 be a8 8c 3d 20 91 59 3d 04 5b f6 bc 26 d2 97 3c
       0.068681225 0.053116918 -0.030072697 0.018532824
000030 ee 81 a6 3c 8e d8 ab bd a0 1f 3e 3d 2b f8 92 bd
       0.020325627 -0.08390914 0.04641688 -0.071762405
000040 48 0c 06 3d ba 24 b0 3d 08 61 c8 bc ee 84 36 3c
       0.032726556 0.08600755 -0.02446033 0.011140091
000050 88 a6 a8 3d 03 a0 8e 3d 93 01 9a 3d a2 f1 7e bd
       0.08234888 0.069641136 0.075198315 -0.062242158
000060 eb ba a0 3c 4a 78 96 bd 88 94 88 3c 70 1a a5 bd
       0.01962038 -0.07347162 0.016672388 -0.08061683
000070 4c af 2e 3c bd 7a 35 3d 34 fc a3 bd c6 bc 54 bc
       0.010661911 0.044306505 -0.08007088 -0.01298446
000080 83 1d 08 bd 75 85 92 3d 34 3a 14 bc ea de 6e 3d
       -0.03323127 0.07154361 -0.00904708 0.058318056
000090 ab 7f 85 bd c4 bb 6f 3c 56 bd 80 3d 09 4f 55 3b
       -0.06518491 0.014632169 0.06286113 0.003254833
0000a0 79 54 01 bd 86 e1 10 bd cc 0a 81 3d a4 e8 11 3d
       -0.0315747 -0.035371326 0.063008875 0.035622254
0000b0 63 5f e2 3b 3c 52 52 3d 61 81 3e bd 26 8c 8e bd
       0.0069083436 0.051347956 -0.046510104 -0.06960325
0000c0 f6 39 90 bc 4d 8a 86 3d d0 a2 ab bd d0 1e 34 bd
       -0.017605763 0.065693475 -0.083806634 -0.043974698
0000d0 e2 20 b2 3c 8f be 10 3d 1b bb 2e 3d e5 5b e8 3c
       0.021744195 0.03533798 0.042658906 0.028364131
0000e0 9c 3e a2 bd 76 f3 ed bc ef d0 5f 3d 4c 60 75 3c
       -0.07922098 -0.029046755 0.054642614 0.014976572
0000f0 20 0d 41 3d 27 84 89 3d 1f 5c 53 3d c5 c3 10 bd
       0.047131658 0.06714659 0.051601525 -0.03534295
000100 b5 82 30 bd 1c 14 87 bc 97 c7 4d bb 91 00 09 bc
       -0.043093402 -0.016489081 -0.0031399482 -0.008361951
000110 c5 0d 85 bc 0c 94 51 3c d9 07 68 3d 4d 70 7f bd
       -0.016241917 0.012791645 0.05664811 -0.062362958
000120 aa 53 3b 3d b0 eb b2 bd e6 2c 70 3b 34 4b a4 bd
       0.045734085 -0.0873636 0.0036647855 -0.08022156
000130 88 a5 b1 3d cd ef 98 bd a6 8c 52 bd e2 c9 66 3d
       0.08674151 -0.07467613 -0.051403664 0.056344874
000140 4f ce 47 3d 80 cc 8d 3d 75 cf c0 3c f2 0d a4 bd
       0.048780736 0.06923771 0.023536423 -0.08010472
000150 a3 ae 7b bd 0e fb 71 3d e9 40 b2 bd 64 f9 a7 3d
       -0.061445843 0.059077315 -0.08703787 0.08201864
000160 c6 87 82 bc 3a 10 87 3c 78 2f 78 bb db e5 ad bc
       -0.015933882 0.01648723 -0.003787009 -0.021227768
000170 f6 32 c3 bc 3a b0 d2 3c d2 0a 87 bc 8e f9 58 3c
       -0.023828011 0.025718797 -0.016484652 0.013243092
000180 46 f8 99 3d 19 25 01 3c bf c7 8b bd 64 40 87 bd
       0.075180575 0.00788238 -0.06825208 -0.066040784
000190 b5 2e 62 3d 19 6e fe 3c 4a f1 87 3c 6f 81 2a bd
       0.055220325 0.031058358 0.016594548 -0.041627344
0001a0 cd f0 92 bd 25 43 97 3d dc a1 ad bd da b5 38 bd
       -0.07174835 0.07385854 -0.08478138 -0.045095302
0001b0 18 c0 1f 3d b9 d3 99 3d d5 d3 04 bd f3 e1 ac bd
       0.039001554 0.07511086 -0.03242858 -0.08441534
0001c0 03 a2 aa 3c 91 44 9f ba ea b8 46 bc 70 de 9f bd
       0.020829206 -0.0012151172 -0.012129048 -0.078060985
0001d0 9e 26 76 3d d2 d8 55 3c 43 cc d2 3c 5a fc 5a 3d
       0.060095422 0.013052182 0.025732165 0.053463317
0001e0 91 a4 9a 3d 9d 2d b9 bc 41 7a 0c 3c b0 28 63 bd
       0.0755092 -0.022604758 0.0085740695 -0.055458724
0001f0 cb 34 8a bd b8 fc 39 bd dc 5e 46 3c d0 96 5f bd
       -0.06748351 -0.045407027 0.012107577 -0.054587185
000200 82 0e 50 3d 45 31 fe 3c 2e df e8 bc fa 17 31 3d
       0.050795086 0.031029353 -0.028426733 0.043235756
000210 8e 9e 87 3d 86 20 ef bc 82 24 48 3d fc 7f 64 3d
       0.06622039 -0.029190313 0.04886294 0.055786118
000220 a6 f3 a8 3d 84 9a 84 bd c1 ef 8f 3d b4 47 a4 3a
       0.08249597 -0.06474784 0.07028151 0.0012533576
000230 b1 e0 b9 3b 3d 9a 31 3a b2 b1 69 bd ea 4c 04 bd
       0.0056725373 0.00067749975 -0.05705423 -0.032299913
000240 c7 12 92 bd a4 10 39 bc 82 65 b6 3c 47 a9 80 bd
       -0.07132488 -0.011295471 0.0222652 -0.06282287
000250 87 0c 0d 3d fe 7a b1 bd 04 cf 33 3d a2 96 b1 bd
       0.034435775 -0.08666037 0.043898597 -0.08671309
000260 87 f2 dd ba 6f 12 86 3d d4 e2 a3 bd 1c d0 8c bd
       -0.0016933241 0.06546485 -0.080022484 -0.06875631
000270 b5 de 2c bd 11 eb 0d bd 3d be 44 bd ee af 9e 3d
       -0.042204577 -0.034648005 -0.048032988 0.077484
000280 52 e8 7e bd 58 96 25 3d 98 ae 80 bd c7 d4 e0 bc
       -0.062233277 0.040426582 -0.06283301 -0.02744521
000290 f0 71 90 bd 6a bc ac bd c4 68 44 bd 1e 23 45 3b
       -0.07052982 -0.08434375 -0.047951475 0.0030080746
0002a0 a0 3b 43 3d b1 d6 10 3d 51 96 18 3d e8 90 9b 3d
       0.047664285 0.035360996 0.037252728 0.07595998
0002b0 43 03 5e bb e4 32 b1 3d 49 19 9d bd 90 86 29 bd
       -0.0033876456 0.08652285 -0.076708384 -0.041388094
0002c0 91 44 8f bd 58 65 77 bd e0 8d 85 bd 34 f9 a9 bd
       -0.069955 -0.060399383 -0.06521201 -0.08299485
0002d0 c6 30 ac 3d 25 b7 8d 3c e2 3c 35 3d a5 e7 de bc
       0.0840774 0.017299244 0.044247515 -0.027210066
0002e0 b4 9e a3 3c 84 39 40 bd 67 c3 b2 bd a1 81 02 3c
       0.019973136 -0.04692985 -0.08728676 0.007965476
0002f0 80 93 5d 3d 50 24 62 bc c3 f3 e6 3c 47 5e 1e 3d
       0.054095745 -0.013802603 0.028192407 0.03866413
000300 b6 b3 83 3d 1b 7f aa bd be 49 15 bd b1 69 bb 3b
       0.064307615 -0.08325025 -0.03644728 0.0057193865
000310 6e 75 b0 3d 0c 4f b0 3d ac 20 73 bd 94 90 6d bd
       0.08616148 0.08608827 -0.05935733 -0.05799921
000320 09 9a ac 3d 01 87 c7 bb 19 9b 53 bd 4b 90 39 bd
       0.084278174 -0.0060890918 -0.051661585 -0.045303624
000330 c5 99 54 3d 50 3e 64 3d a5 b3 99 3d f7 42 92 bc
       0.05190446 0.05572349 0.075049676 -0.017854197
000340 3e 22 d7 bc eb 0c 8c bb 9e 2e 9f 3d f7 ee a0 bd
       -0.026261445 -0.004274001 0.077725634 -0.07858079
000350 88 43 3b 3d 48 17 7c bd 37 63 0c bc 7e dd 9a 3d
       0.0457187 -0.06154564 -0.008568577 0.075617775
000360 89 7c 00 bd d5 fb 10 bd aa 14 22 bb ea 4b 20 3d
       -0.031368766 -0.035396416 -0.0024731555 0.039134897
000370 f5 a2 91 3d e1 a9 ab bd 91 6e 8e 3d 75 eb f3 bc
       0.0711116 -0.08382011 0.069546826 -0.02977536
000380 dd 92 4f 3c 58 75 45 bd 25 58 bf 3c 77 d2 af bd
       0.012669292 -0.04820761 0.02335746 -0.08585065
000390 2f 06 67 bd 8f 18 22 bd 66 0b 63 3d 11 cf bd 3c
       -0.05640238 -0.039574202 0.055430792 0.023170026
0003a0 40 87 7c bd e7 7e 53 3c 68 c4 b1 3d 0c 21 af bd
       -0.061652422 0.012908674 0.0868004 -0.08551225
0003b0 cb a8 9f 3d 8d 0b 8d 3d af 64 9b 3b 63 6b 37 bd
       0.077958666 0.06886969 0.004742227 -0.044780146
0003c0 cd c2 25 3d 06 27 2c 3d ce 45 0a bd 0c f1 4a bd
       0.04046898 0.042029403 -0.033757977 -0.049546286
0003d0 24 3b 6c bd a2 0b 08 bd 72 c0 9b 3c 89 14 1c 3d
       -0.05767359 -0.03321422 0.019012664 0.03810552
0003e0 34 2d 14 bb 71 26 9d 3d 2d 04 d5 3c 70 f5 da 3c
       -0.002260995 0.07673348 0.026002968 0.026728362
0003f0 fc 94 33 bd 12 0b d2 bc 84 24 71 3d 77 d8 3b 3d
       -0.043843254 -0.025640044 0.058872715 0.045860734

module.layers.2.bias f4 [64]
000000 48 23 ad bb a0 53 8f bd eb 4d 93 3d 4d 57 04 bd
       -0.005283747 -0.06998372 0.07192596 -0.03230982
000010 b3 6f 83 3d 66 18 f8 3c 48 ed 0b bd f5 50 a7 bd
       0.06417789 0.030285072 -0.034161836 -0.08169738
000020 fd b5 fa bc 61 5e 37 bd e0 52 b3 3c 53 49 df bc
       -0.030604357 -0.04476774 0.021890104 -0.027256643
000030 4c b3 9b bd b0 14 b9 3d 25 08 6c bd eb 6e 97 3c
       -0.076025575 0.09037149 -0.057624955 0.018485507
000040 0e 58 2a bd 33 01 14 3d 22 af 07 bd 14 39 9b bd
       -0.04158788 0.036133956 -0.033126004 -0.07579246
000050 ac 55 8f 3d b4 cc 2f 3d 28 d0 64 3c c1 f7 a4 bd
       0.069987625 0.04291983 0.013965644 -0.08055068
000060 60 c0 e4 3a 04 f2 1f bd 75 ec 7f 3c a8 7a dd bc
       0.0017452352 -0.039049163 0.015620341 -0.027036026
000070 a7 1f 27 bd 16 b9 af 3d 38 36 8d 3d 69 07 52 bc
       -0.04080167 0.08580224 0.06895107 -0.0128191495
000080 76 77 ae bc 7e 3d ab bd e6 f8 5a bd 71 bb ab bc
       -0.021297198 -0.08361338 -0.053460024 -0.020963402
000090 24 d4 7e 3d 81 4f 9e bc 53 64 ad 3d eb c5 a8 3d
       0.06221403 -0.01932502 0.08466401 0.08240875
0000a0 84 1d f3 bb ab dc 6d 3c c8 11 a3 3d 9b e4 27 3d
       -0.00741929 0.014517943 0.07962376 0.0409895
0000b0 e7 bd 51 3d 1f d4 a7 3b ea 68 b9 3c d4 84 91 3d
       0.051206496 0.0051217224 0.022633035 0.07105413
0000c0 36 39 8e 3d 65 9d 5d 3d db b4 97 bd e0 6d 84 3d
       0.06944506 0.05410518 -0.07407542 0.064662695
0000d0 92 b5 5c bd dc 41 89 bd 3c 05 9d 3c ce 47 17 3d
       -0.053884096 -0.06702015 0.019167535 0.036933713
0000e0 2c 16 6a 3d 38 08 52 3d 56 eb 71 3d a7 e4 06 3d
       0.05715005 0.05127737 0.059062324 0.032932904
0000f0 9f f5 71 3d 06 10 45 bd 47 98 8f bd 6a f2 b0 3c
       0.059072133 -0.048110984 -0.070114665 0.021599967

module.layers.4.weight f4 [32, 64]
000000 48 60 22 bd ce 8e fc 3c 17 34 47 bb c8 91 9d 3d
       -0.039642602 0.030829813 -0.0030396038 0.07693821
000010 50 74 b1 bd 05 b4 54 3b 84 5f 82 bd 98 db c4 bd
       -0.08664763 0.0032455933 -0.063658744 -0.09612197
000020 10 f1 41 3d bc 19 e4 3d 73 f0 d5 bc c0 75 7c bd
       0.047349036 0.11137721 -0.026115632 -0.061635733
000030 e4 02 e8 3d 99 91 a0 3d 1b 53 79 bd ec 2a 84 bd
       0.11328676 0.078402705 -0.06087027 -0.06453499
000040 3e 1b 3a 3d 2c 10 e1 bd 83 c1 31 3d a7 ab ee 3c
       0.045436136 -0.10989413 0.043397438 0.029134585
000050 c3 a7 a8 bc 48 9a 92 bd 2f 4c 52 bd 26 85 c4 ba
       -0.020587808 -0.07158333 -0.051342186 -0.0014993295
000060 bc a0 ae 3d 72 b5 98 bc f9 1f d2 bd f4 f4 94 bd
       0.085267514 -0.018641207 -0.102600046 -0.072732836
000070 48 ec 04 3c 55 5d e6 3c be 9f 20 bc a7 fd a0 3c
       0.008112974 0.028120676 -0.0098037105 0.0196522
000080 08 d8 a8 3d 87 79 0e bd db bd ba bd 47 d0 d2 3d
       0.0824433 -0.034783866 -0.09118243 0.10293632
000090 b9 13 47 3c 94 d2 d6 bd 53 e1 8a 3c 8c cc 02 3c
       0.012150698 -0.10489383 0.016953146 0.007983338
0000a0 74 b0 d7 bd 12 8b 84 3c de 12 63 3d 7b fe ee bd
       -0.10531703 0.016179595 0.055437915 -0.11669632
0000b0 a1 bc 57 3d f5 ba 92 bd e2 58 87 bc e8 cf fc 3d
       0.052670125 -0.071645655 -0.016521875 0.123443425
0000c0 3f c6 a4 bd 72 75 0b 3d 7d 33 cb bd cc 77 b2 bd
       -0.08045625 0.03404755 -0.0992193 -0.08714256
0000d0 06 a7 8e 3d d2 94 0d 3d fd 70 e0 bd d7 17 2f 3d
       0.06965451 0.034565754 -0.10959051 0.042747345
0000e0 86 b6 d0 bd cc f0 e6 3d 85 bf fa 3d 6e 74 99 3d
       -0.101910636 0.11276397 0.12243561 0.0749291
0000f0 9e 82 66 ba 54 1b f2 bd ae a6 73 3d be e1 8d bd
       -0.0008793267 -0.11821619 0.05948513 -0.069278225
000100 d6 cb f0 bc 0e 5d a5 bd 29 28 bd 3a 5e cc 6b 3d
       -0.029394072 -0.080743894 0.0014431524 0.057567947
000110 f6 c6 ea 3d 94 cb 2e 3c 0b d4 12 bc 4e bd a9 3d
       0.1146373 0.010668654 -0.008961688 0.0828806
000120 8b 5a fe 3d a2 d8 3f bd bf 45 f1 bd a0 a6 be bd
       0.124196135 -0.046837457 -0.11780881 -0.09309125
000130 84 48 e6 3c 7c 86 d7 bd 9a f1 99 3c bd 23 a6 3d
       0.02811075 -0.10523698 0.018791962 0.08112285
000140 9f 8c 9b 3c cd e4 17 3d 99 e7 dc bd 5c 16 a4 3d
       0.018987952 0.037083436 -0.10786361 0.08012077
000150 09 5a 70 3d 48 c2 a5 bd ba f3 5c 3c 73 2b 66 3d
       0.058679614 -0.08093697 0.013485843 0.05619378
000160 0d 4a b5 bd 64 c8 a3 3b 3f 9e 1d 3c 37 8e 93 3d
       -0.08852015 0.0049982537 0.009620248 0.0720486
000170 8a 7e d1 3d 7f 6a a6 bb e8 67 8b ba 4d d0 df bc
       0.102292135 -0.0050786133 -0.0010635825 -0.027321005
000180 5e cf 94 3b 38 da d3 bb d1 d8 26 3d 1c bb c5 3d
       0.0045413217 -0.0064652227 0.040734116 0.09654829
000190 01 84 e1 bd 35 bd 12 3d c9 86 12 3c e2 78 c1 3d
       -0.11011506 0.035824973 0.008943268 0.09446885
0001a0 87 57 d9 bc aa cb b9 3b 58 53 de 3d 35 08 52 bd
       -0.026530994 0.0056700306 0.1085574 -0.051277358
0001b0 54 55 cb bd ae 61 e6 bd 0b a7 a0 bd 44 47 14 bc
       -0.099283844 -0.112491 -0.07844361 -0.009050194
0001c0 1d f2 ed bd 6c 84 54 bd 9e 10 47 3c f0 8f e9 3d
       -0.11618445 -0.0518841 0.012149958 0.11404407
0001d0 e1 1f 19 bb d3 23 b9 3d ee f9 94 3d 5d af 15 bd
       -0.0023364949 0.09040036 0.07274233 -0.036544193
0001e0 28 15 92 3d e0 41 43 bd df 45 98 3c 7f ba c6 bc
       0.071329415 -0.047670245 0.018588005 -0.02425885
0001f0 98 7d d2 3c bc e1 25 bd 81 58 4d 3d 2e e3 69 3d
       0.025694653 -0.04049848 0.050133232 0.05710142
000200 7d c4 01 bc 13 12 f0 bd 6c e5 ea bd 73 b9 31 bd
       -0.007920382 -0.117221974 -0.1146954 -0.04338975
000210 38 a2 4f bd 44 9b f6 3c 9a 9f 92 3c a0 37 4a bc
       -0.050691813 0.030103333 0.01789837 -0.012342364
000220 0c 87 0b 3d c0 3d 81 3c fc 4e d8 3d 3e 36 28 3d
       0.034064338 0.015776515 0.1056194 0.041067354
000230 c1 d3 86 bd 4e 9c d4 bd 8b 76 9a bd d2 03 92 bd
       -0.065833576 -0.10381375 -0.075421415 -0.07129635
000240 55 5a 8a 3d 73 68 70 bc a0 50 9d bd 03 4f f9 bd
       0.06755511 -0.01467334 -0.076813936 -0.121732734
000250 af 63 d8 bb e4 a2 38 bd a8 dd 95 bd d6 2d 9e 3d
       -0.00660368 -0.04507722 -0.07317668 0.07723586
000260 01 9d ef 3c 38 61 f9 bc 7c e9 28 3d ad 39 a0 3c
       0.02924967 -0.030441865 0.041238293 0.019558752
000270 6d ef 22 bc 3a f1 99 bc 8d d2 9d 3d 01 de d0 bd
       -0.009944779 -0.018791784 0.07706175 -0.10198594
000280 9a c1 57 3d 6e 8f c9 bd 31 6f c9 bd db d7 1d bd
       0.052674867 -0.0984181 -0.09835661 -0.038535934
000290 97 b2 1d bd 13 9c ac bd 47 e7 ac bd 94 e7 4a 3d
       -0.038500395 -0.08428206 -0.0844255 0.049537256
0002a0 84 bb 04 3d 32 3c 94 3d 04 b4 88 bd bd eb e1 bd
       0.03240539 0.07238044 -0.0667496 -0.11031292
0002b0 43 65 78 bc e9 72 1e 3d f5 7c 05 bc 20 07 8b bd
       -0.015160861 0.038683806 -0.008147468 -0.06788468
0002c0 c6 5d 58 bd ba af 42 3d fb 33 fe bc 35 24 d8 3d
       -0.052823804 0.047530867 -0.031030646 0.10553781
0002d0 a3 68 b7 bc 70 1f e7 bd f6 3b b0 bd 81 3b 8a 3d
       -0.022388762 -0.11285293 -0.08605187 0.06749631
0002e0 00 af e0 3d 61 41 82 bd 0d 8c 2d 3d 95 22 06 bd
       0.109708786 -0.06360126 0.04236989 -0.032747824
0002f0 ae e3 e2 bc 30 6c 32 3d ed 2a 95 bd 32 36 79 bd
       -0.027696457 0.043560207 -0.07283578 -0.0608427
000300 01 40 23 bd 93 9e c3 bd ef 09 8b bd ba 2d a1 bd
       -0.03985596 -0.0955173 -0.06789004 -0.0787005
000310 81 ed ea 3d e2 98 c0 bd 42 56 e5 3d ee 67 db 3d
       0.114710815 -0.0940416 0.11198093 0.107131824
000320 22 61 e2 bd af d6 a8 bd 56 6d 1d 3d 7a f5 4b 3d
       -0.11053683 -0.08244073 0.03843435 0.04979465
000330 32 e5 e4 3d 28 db be bd 1a 25 c2 bd 78 c2 29 bc
       0.11176528 -0.093191445 -0.09479733 -0.010361306
000340 58 61 84 bd e8 f2 2a bd da ff 67 bd 4f dc ae 3d
       -0.06463879 -0.04173556 -0.056640483 0.08538114
000350 b6 46 47 3c c8 51 91 3d d2 1e b5 bd 82 d4 75 bd
       0.012162855 0.07095677 -0.08843769 -0.060017116
000360 0f 60 2a 3d f6 9b cb bd 40 98 e6 3d 24 e8 e9 bd
       0.041595515 -0.099418566 0.11259508 -0.114212304
000370 41 84 a8 bd 15 3f 2b bd f7 c4 c8 3d 3c 3a 2f bb
       -0.082283504 -0.041808207 0.09803193 -0.0026737591
000380 a1 25 44 3d de 71 b8 3c 3b 7a 92 3d 9c fa 55 3d
       0.04788745 0.022515234 0.0715222 0.052240953
000390 43 e4 a1 3d bc a9 fc b9 5a c0 a5 bd dd b5 df 3d
       0.079048656 -0.00048191648 -0.08093329 0.109233595
0003a0 0a e5 37 bd 80 24 ed 3c 60 fa 48 bd 1a 1d 7a bd
       -0.044896163 0.028948069 -0.0490669 -0.06106291
0003b0 83 6d cc bd 35 82 25 ba 24 45 86 3d 8c 9c d6 bd
       -0.09981825 -0.0006313653 0.06556156 -0.10479078
0003c0 6e 9a c4 bd fb 07 99 bb 7b dc fa bb fa c6 da bd
       -0.095997676 -0.004670141 -0.007655678 -0.10682483
0003d0 da e3 ad bb b2 aa f1 3d e8 b9 d5 3d cc 11 52 bc
       -0.005306703 0.11800136 0.104358494 -0.012821626
0003e0 ca 42 ee 3d 59 70 04 bd c5 fc c6 bd 87 ad ca 3c
       0.11633833 -0.032333706 -0.09716181 0.024740947
0003f0 45 b9 93 3d 6c f9 4b bd 91 4f cf bd 20 3a 28 bd
       0.07213072 -0.049798414 -0.10122598 -0.041071057

module.layers.4.bias f4 [32]
000000 49 89 e0 bd 6f 7d 00 bd ca 19 b6 bd ef a2 df 3d
       -0.10963685 -0.031369623 -0.088916376 0.10919749
000010 ab ce 9c bc 56 dc db bd 0e 34 c9 3d e0 0c 00 3d
       -0.019141516 -0.10735385 0.09824382 0.03126228
000020 71 39 81 bc 65 25 39 bd 81 1c 3f bc a2 c6 c6 bd
       -0.01577446 -0.045201678 -0.011664511 -0.09705855
000030 4f aa ed bd 39 62 f7 3d 79 49 b6 3d ba fd 2a ba
       -0.116047494 0.12079281 0.089007325 -0.00065227936
000040 4a 1d fc 3d e8 d4 11 bd 46 2a 7d bd 60 28 99 3d
       0.12310274 -0.035603434 -0.061807893 0.07478404
000050 4f 39 34 bd 63 bd dc 3b b1 41 9c 3d cc 7e f7 bd
       -0.043999966 0.006736444 0.07629717 -0.120847315
000060 ee 99 06 3d 19 ce c8 3d 6d 1a db 3c 0f fc 2d bd
       0.032861643 0.09804935 0.026746 -0.04247671
000070 80 28 05 bd e4 49 f4 3d a5 94 1b 3d 0a 06 e6 3d
       -0.032509327 0.11928156 0.037983555 0.112316206

module.layers.6.weight f4 [2, 32]
000000 c0 3c e2 3d 30 5c f4 bd d2 ba 42 bc 76 d5 60 3d
       0.110467434 -0.11931646 -0.011885362 0.054891072
000010 9a f7 fe 3d 6d 36 e7 3c b0 57 37 3e 04 eb 6b bd
       0.1244957 0.028224194 0.17904544 -0.057597175
000020 99 6f 2e bd 92 d3 f1 3d 3a bd 97 3d d0 b9 22 3e
       -0.042586897 0.11807932 0.07409139 0.15891194
000030 ab 14 ea bd 4c ea 27 3d cd 5f 2c be 36 de 3c 3d
       -0.11429723 0.040994927 -0.1683342 0.046110354
000040 8a 1a e0 bd 9f b4 08 3c 50 d7 86 bc 12 a4 f1 bd
       -0.10942562 0.008343845 -0.01646009 -0.11798872
000050 19 6a 58 bd 47 01 cc 3d 14 52 16 3d 23 50 20 3e
       -0.052835558 0.09961181 0.03669937 0.1565557
000060 0e 16 13 be b9 9d 85 bc 5a ac 23 bd bb e0 63 3c
       -0.14363882 -0.01631056 -0.03995929 0.01390856
000070 1d 95 70 3d 2a 9d aa bd 7d 6b f3 3d be 54 f0 3d
       0.058735956 -0.08330758 0.11885736 0.11734913
000080 50 71 17 be 1e 95 b0 bd 73 e2 e1 bc 96 b9 c3 bd
       -0.14789319 -0.08622192 -0.0275738 -0.09556882
000090 18 17 19 bc 6f 14 0e be fa 58 2e be d1 05 51 3d
       -0.009343885 -0.13874982 -0.1702613 0.051030938
0000a0 a7 9a cc 3b b6 6d 81 3d 0a b1 01 3e f4 50 fa 3d
       0.006244022 0.06319754 0.12665191 0.12222472
0000b0 7a 08 20 3b 68 2f aa 3d a6 71 9d 3d 45 59 a6 3d
       0.0024419115 0.08309823 0.07687692 0.081224956
0000c0 c2 0e e2 bd 9e c7 1c 3e fd 4a 90 3d 0c 57 15 3e
       -0.11037971 0.15310523 0.07045553 0.14583987
0000d0 03 23 71 3d e1 9c bc bd 75 0f f8 bd bf cd 1e 3e
       0.05887128 -0.0920961 -0.12112323 0.15508173
0000e0 74 dd 1b 3e 80 0f 84 bc 28 98 e2 3c 32 d8 35 be
       0.15221196 -0.016120672 0.027660444 -0.17758253
0000f0 03 f9 df bd c9 78 30 be ea 58 a9 bd 1b 54 a8 bd
       -0.10936167 -0.17233576 -0.08268912 -0.08219167

module.layers.6.bias f4 [2]
000000 63 c6 65 bd f9 83 1d 3d
       -0.0560974 0.038455937
